…
2023-09-26 08:21:56 | INFO | fairseq.data.data_utils | loaded 2 examples from: data-bin/finetune/x86-O0/byte4/valid
DBG :  byte4 <fairseq.data.dictionary.Dictionary object at 0x7f737125e490> data-bin/finetune/x86-O0/byte4/valid None
2023-09-26 08:21:56 | INFO | fairseq.data.data_utils | loaded 2 examples from: data-bin/finetune/x86-O0/label/valid
2023-09-26 08:21:56 | INFO | fairseq.tasks.data_structure_mf | Loaded valid with #samples: 2
2023-09-26 08:21:56 | INFO | fairseq_cli.train | RobertaModelMFNAU(
  (encoder): RobertaEncoderMF(
    (sentence_encoder): TransformerSentenceEncoderMFNAU(
      (dropout_module): FairseqDropout()
      (embed_tokens_dict): ModuleDict(
        (static): Embedding(657, 768, padding_idx=1)
        (inst_pos_emb): Embedding(521, 768, padding_idx=1)
        (op_pos_emb): Embedding(33, 768, padding_idx=1)
        (arch_emb): Embedding(9, 768, padding_idx=1)
      )
      (byte_emb): Embedding(265, 768, padding_idx=1)
      (bytecombine): ByteCombine(
        (layer_1): ReRegualizedLinearNACLayer(in_features=3072, out_features=1024)
        (layer_2): ReRegualizedLinearNACLayer(in_features=1024, out_features=768)
        (act): GELU(approximate='none')
      )
      (layers): ModuleList(
        (0-7): 8 x TransformerSentenceEncoderLayer(
          (dropout_module): FairseqDropout()
          (activation_dropout_module): FairseqDropout()
          (self_attn): MultiheadAttention(
            (dropout_module): FairseqDropout()
            (k_proj): Linear(in_features=768, out_features=768, bias=True)
            (v_proj): Linear(in_features=768, out_features=768, bias=True)
            (q_proj): Linear(in_features=768, out_features=768, bias=True)
            (out_proj): Linear(in_features=768, out_features=768, bias=True)
          )
          (self_attn_layer_norm): LayerNorm((768,), eps=1e-05, elementwise_affine=True)
          (fc1): Linear(in_features=768, out_features=3072, bias=True)
          (fc2): Linear(in_features=3072, out_features=768, bias=True)
          (final_layer_norm): LayerNorm((768,), eps=1e-05, elementwise_affine=True)
        )
      )
      (emb_layer_norm): LayerNorm((768,), eps=1e-05, elementwise_affine=True)
    )
    (lm_head_byte_value_all): RobertaLMHeadRegAll(
      (dense): Linear(in_features=768, out_features=1536, bias=True)
      (layer_norm): LayerNorm((1536,), eps=1e-05, elementwise_affine=True)
      (output_dense): Linear(in_features=1536, out_features=4, bias=True)
    )
    (lm_head_cf): RobertaLMHeadCls(
      (dense): Linear(in_features=768, out_features=768, bias=True)
      (layer_norm): LayerNorm((768,), eps=1e-05, elementwise_affine=True)
    )
  )
  (classification_heads): ModuleDict(
    (data_structure_head): RobertaClassificationList(
      (dense): Linear(in_features=768, out_features=768, bias=True)
      (dropout): Dropout(p=0.0, inplace=False)
      (out_proj): Linear(in_features=768, out_features=44, bias=True)
    )
  )
)
2023-09-26 08:21:56 | INFO | fairseq_cli.train | task: data_structure_mf (DataStructureMF)
2023-09-26 08:21:56 | INFO | fairseq_cli.train | model: roberta_mf_nau (RobertaModelMFNAU)
2023-09-26 08:21:56 | INFO | fairseq_cli.train | criterion: data_structure_mf (DataStructureMFCriterion)
2023-09-26 08:21:56 | INFO | fairseq_cli.train | num. model params: 64190264 (num. trained: 64190264)
…
